assets/model/model.tflite (tflite, 149624 bytes, 10 tensors)

arith.constant f4 [128]
0	0x00000000	0.0
1	0xbb955fb6	-0.004558529
2	0x3bade7fa	0.005307195
3	0x3b8b79a7	0.0042564454
4	0xbc75b46f	-0.014996632
5	0xbc809785	-0.01569725
6	0x3b2028f0	0.0024438463
7	0x00000000	0.0
8	0xbc5514e0	-0.013005465
9	0xbb8aa816	-0.004231463
10	0x00000000	0.0
11	0x3cb2185a	0.021740127
12	0xbbd8b3a3	-0.0066132112
13	0xbc5d5556	-0.013509115
14	0x00000000	0.0
15	0x3ce55ddb	0.027998855
16	0x3abedd47	0.0014561795
17	0x3cad1185	0.021126518
18	0xbc557a7e	-0.013029693
19	0xbc5a2348	-0.013314076
20	0xbbb9cb34	-0.0056699757
21	0x3c679a38	0.01413589
22	0x3ca761d6	0.020432394
23	0x3c33bbba	0.0109700505
24	0xbc78b53d	-0.015179929
25	0x00000000	0.0
26	0x3cdfad5e	0.027304348
27	0x3cae7303	0.021295076
28	0x3cbfbc9f	0.023405371
29	0x3cb71e6b	0.022353372
30	0xbc98848e	-0.018617895
31	0xbc425eec	-0.011863451
32	0xbb68085e	-0.0035405378
33	0xbc9ab53a	-0.018885244
34	0xbc20a83a	-0.009805733
35	0xbc70e4fc	-0.014703032
36	0xbbe133b9	-0.006872621
37	0xbba37e51	-0.0049894233
38	0x3cc53dd4	0.024077334
39	0x00000000	0.0
40	0x3c656ce6	0.014003014
41	0xb80e60ed	-3.3945707e-05
42	0x3bd96cb7	0.0066352743
43	0x3bb8002c	0.005615255
44	0x00000000	0.0
45	0x3c7360c2	0.014854612
46	0x00000000	0.0
47	0x3a965f17	0.0011472431
48	0x3bd0dfa8	0.006374318
49	0x3bd95a9f	0.0066331173
50	0xbbc7bf3a	-0.006095794
51	0xbc409310	-0.011753812
52	0xbc6a995c	-0.01431879
53	0x3b97b82a	0.0046301084
54	0xbc13ec1c	-0.009028461
55	0x3c923fb5	0.017852644
56	0xbc693b95	-0.014235397
57	0xbadc6821	-0.0016815701
58	0x3c856d80	0.016287565
59	0x3c15e14a	0.009147951
60	0x00000000	0.0
61	0x3c362e9a	0.011119509
62	0xbca764aa	-0.020433743
63	0xbbc45b41	-0.0059923236
64	0xbbcaffdd	-0.006195052
65	0xbb8b0218	-0.004242193
66	0xbb386b91	-0.0028140286
67	0x3b2589b4	0.002525908
68	0x3ac93c31	0.0015353021
69	0x3ba7b2c6	0.005117747
70	0x3bc49763	0.005999492
71	0x3c8d2a98	0.017232224
72	0xbbc4c0ab	-0.006004413
73	0x3cb2876c	0.02179309
74	0xba442739	-0.0007482651
75	0xbb9cb39d	-0.0047821538
76	0xbbb2f5b2	-0.005461418
77	0xbbe118c3	-0.006869407
78	0x3befe608	0.007321123
79	0x3ca447ba	0.020053733
80	0xbc5e67ea	-0.01357458
81	0x3b934010	0.004493721
82	0xbc1cb8b8	-0.009565525
83	0x3b8540fd	0.004066585
84	0x3ba0531d	0.0048927204
85	0xbbf726ac	-0.007542452
86	0xbbf7d8ba	-0.0075636776
87	0x3c331157	0.010929427
88	0x3c907f77	0.017638905
89	0x3c828206	0.01593114
90	0xbc164bcf	-0.009173348
91	0xbbe848c5	-0.007088753
92	0xbc08828b	-0.008331905
93	0x3c1ee2c2	0.009697618
94	0x3c851e66	0.016249847
95	0x3c268367	0.010163165
96	0xbbf5992e	-0.007495067
97	0xbb3e4aa0	-0.002903618
98	0x00000000	0.0
99	0xbbe9081b	-0.007111562
100	0x3bfb2368	0.007664133
101	0x3c340dc9	0.010989615
102	0xbc0ba796	-0.008523842
103	0x00000000	0.0
104	0xbc30a80f	-0.010782256
105	0x3d1186bf	0.035528895
106	0x3c90d474	0.01767943
107	0x3b959f02	0.0045660743
108	0x3ba11d2e	0.0049168086
109	0x00000000	0.0
110	0xbbc4bc4f	-0.0060038934
111	0xbbacfa83	-0.0052788868
112	0x3ca13b76	0.019681673
113	0xba97b1b0	-0.0011573341
114	0x3cefc38a	0.029268045
115	0xbba3bdcc	-0.004996991
116	0xbbffa189	-0.007801239
117	0xbc6fea00	-0.014643192
118	0x3c8b7d3e	0.017027494
119	0x3c1fcffd	0.009754178
120	0xbbc57af0	-0.006026618
121	0xbbaa7bd9	-0.005202752
122	0x3cacbda0	0.021086514
123	0x3c852d5f	0.016256986
124	0x00000000	0.0
125	0x3c3bfa07	0.011473185
126	0xbc8a090c	-0.016850017
127	0xbc356ef9	-0.011073821

arith.constant1 f4 [32]
0	0xbbb355ba	-0.005472866
1	0xba6fbdb6	-0.00091453956
2	0xbc9a248c	-0.018816255
3	0x3a965a7e	0.001147106
4	0x3c1befb6	0.009517601
5	0x3ca10772	0.01965687
6	0xbc905c8f	-0.01762226
7	0xbba6f2f1	-0.005094879
8	0xbc9f11ff	-0.01941776
9	0x3a28b95b	0.00064363115
10	0xbc11aae6	-0.008890843
11	0x3c450bd7	0.012026749
12	0x3bacaf5e	0.005269929
13	0x3afd336b	0.0019317692
14	0x3c8790c8	0.01654853
15	0x3afac2f0	0.0019131582
16	0x3bb6c356	0.005577485
17	0xbbb40710	-0.005494006
18	0xbbc57084	-0.006025376
19	0xbbab2b60	-0.0052236766
20	0xbc2c1af4	-0.010504473
21	0xbc8616ed	-0.016368354
22	0x3bd166a7	0.006390411
23	0x3b3e03a7	0.0028993876
24	0xbbbe81ab	-0.0058137975
25	0x3c398401	0.011322976
26	0xbc040b84	-0.008059386
27	0x3cc231f0	0.023705453
28	0x3c87abc4	0.016561396
29	0xbbc3ff4f	-0.005981363
30	0x3ce4d9ad	0.027935827
31	0xbc0f12ed	-0.00873254

arith.constant2 f4 [32]
0	0x3c64ef62	0.013973089
1	0x3c049409	0.008091935
2	0x3a45b31c	0.0007541643
3	0xbbea3b1e	-0.0071481606
4	0xbc84ed2f	-0.01622638
5	0xbc55d17d	-0.013050434
6	0xbb94e69e	-0.0045440933
7	0xbbe95c08	-0.0071215667
8	0xbbc91d19	-0.006137502
9	0xbaf9ddb2	-0.0019063263
10	0xbab5854e	-0.0013848932
11	0x3ba1e867	0.0049410346
12	0x3ce544f5	0.027986983
13	0x3c292e35	0.010325958
14	0xbca2bfab	-0.019866785
15	0xbbd7fc61	-0.006591365
16	0xbcdc07fb	-0.026859274
17	0xbc6f9bea	-0.014624575
18	0xbb4a9ff0	-0.0030918084
19	0xb79629e0	-1.7900893e-05
20	0xbc301dd4	-0.010749299
21	0xbc4d7529	-0.01254014
22	0x3d015925	0.031579155
23	0xbc1b5a36	-0.009481957
24	0xbbfdfee7	-0.007751334
25	0xbca7e9f8	-0.020497307
26	0xbca397fc	-0.019969933
27	0x3ba5837d	0.005051075
28	0xbbd11d38	-0.006381657
29	0xbbd91676	-0.006624992
30	0xbbd800b3	-0.00659188
31	0x3c44d6d3	0.012014109

arith.constant3 f4 [32]
0	0x3c120b55	0.008913835
1	0x3cfe02dd	0.031007225
2	0x3c64ba6d	0.013960463
3	0x3cc836c4	0.024440177
4	0xbc868b21	-0.016423764
5	0xbcba8d34	-0.022772409
6	0xbc0956d1	-0.008382515
7	0xb9e6b14f	-0.00044001124
8	0x3c131798	0.008977793
9	0xbd2b2ecf	-0.041792687
10	0x00000000	0.0
11	0xbb54bbb7	-0.003246052
12	0xbbbd2633	-0.005772376
13	0x3bc060c4	0.0058709104
14	0x3b2993e4	0.0025875503
15	0xbc55d64c	-0.013051581
16	0xbcb1ce0b	-0.021704694
17	0xbc5824d0	-0.0131923705
18	0x3d174818	0.03693399
19	0x3c9bcd24	0.019018717
20	0xbccdc255	-0.025117079
21	0xbc4d2479	-0.012520903
22	0x3c1c1661	0.00952682
23	0xbd1ae726	-0.037818097
24	0xbc88e103	-0.016708856
25	0x3caee227	0.021348072
26	0x00000000	0.0
27	0x3c3f0940	0.01165992
28	0xbc7d0997	-0.015444181
29	0x3c47c6fb	0.012193437
30	0xbcb5bb70	-0.022184104
31	0xbc0e31e6	-0.008678889

arith.constant4 f4 [3]
0	0x3bcd4645	0.0062644803
1	0xbc8a46f8	-0.016879544
2	0x3c21e8de	0.00988218

arith.constant5 f4 [32, 3, 3, 32]
0	0xbd9fe178	-0.078066766
1	0x3d86c1a2	0.06579901
2	0x3d5e7acf	0.05431634
3	0x3ce1f2a8	0.027581528
4	0xbddb6e4a	-0.10714395
5	0x3ca3f748	0.020015374
6	0x3d043774	0.032279447
7	0x3d893a3f	0.06700563
8	0xbd603a09	-0.054742847
9	0x3d3f5caf	0.04671925
10	0x3d31c984	0.04340507
11	0x3d21ff38	0.039550036
12	0xbda39a43	-0.079884075
13	0x3cc26510	0.023729831
14	0x3d02f784	0.03197433
15	0x3d8ec168	0.06970483
16	0xbdd61ad5	-0.104543366
17	0xbca511e4	-0.020150132
18	0x3dc5d83a	0.096603826
19	0x3d80c305	0.06287197
20	0xbd458c38	-0.048229426
21	0x3d17e2b8	0.03708145
22	0xbdceaf98	-0.100920856
23	0x3cdf45b8	0.027254924
24	0x3d0e2e30	0.034712017
25	0x3d881650	0.06644881
26	0x3dbb1cc5	0.09136347
27	0xbcec8701	-0.028872969
28	0x3caf9034	0.021431066
29	0xba986bbf	-0.001162879
30	0xbcab4032	-0.020904634
31	0x3db8d3a1	0.0902474
32	0x3d52b7a8	0.05144468
33	0x3d0e4b94	0.034740046
34	0xbc822293	-0.015885627
35	0xbd868eef	-0.06570231
36	0xbd40fe49	-0.047117505
37	0xbd5f96f7	-0.05458733
38	0x3cfbc388	0.030732885
39	0x3b88a50d	0.004170066
40	0x3ceb6458	0.028734371
41	0xbd96b76e	-0.07359205
42	0xbdbc0a37	-0.09181636
43	0x3cad5fc4	0.021163829
44	0xbd21aed4	-0.03947337
45	0x3dbc035a	0.09180327
46	0xbc41f393	-0.011837858
47	0xbcbde444	-0.023180135
48	0x3db032d4	0.08603445
49	0xbdc89330	-0.09793699
50	0xbc453688	-0.012036927
51	0xbb9760cd	-0.004619694
52	0xbcbabd84	-0.022795446
53	0x3d81eba8	0.06343776
54	0xbd2f2b30	-0.042765796
55	0x3dcafcca	0.09911497
56	0x3d80f0c6	0.06295924
57	0xbd6c8d54	-0.05775197
58	0x3d12e903	0.03586675
59	0xbb0800d8	-0.0020752456
60	0xbc31aac0	-0.010843933
61	0xba98f800	-0.001167059
62	0x3d927513	0.071512364
63	0xbd6c6264	-0.05771102
64	0xbdabc348	-0.08386856
65	0xbdb3e378	-0.087836206
66	0x3d17dea6	0.03707757
67	0xbdb20b4e	-0.086935624
68	0x3d91605a	0.07098456
69	0x3bb80cf0	0.0056167766
70	0xbd94968c	-0.07255277
71	0xbdd7e2d1	-0.10541309
72	0x3d0704b8	0.032963485
73	0x3d8464cf	0.0646454
74	0xbd9f3166	-0.07773094
75	0x3d67e79f	0.056617375
76	0xbdd7bb59	-0.105337806
77	0x3d3df430	0.046375453
78	0xbd923ce1	-0.07140518
79	0xbd9e74de	-0.077371344
80	0xbd9c84c7	-0.07642513
81	0x3d395cec	0.045254633
82	0xbd986da0	-0.07442784
83	0x3d8d592d	0.069017746
84	0xbcc8dedc	-0.02452033
85	0x3d4fb9c3	0.050714266
86	0xbd18db88	-0.037318736
87	0xbd594a41	-0.05304933
88	0xbd01fa06	-0.03173258
89	0x3d8531da	0.06503649
90	0xbdd5226c	-0.10406956
91	0xbb8c6010	-0.0042839125
92	0x3d6ff830	0.0585863
93	0xbdbcaa57	-0.09212177
94	0xbd3ba860	-0.04581487
95	0x3d6eed3c	0.058331713
96	0xbd5b5faf	-0.053558048
97	0xbd6efd9f	-0.05834734
98	0xbcaa7a9b	-0.020810416
99	0xbd33bd21	-0.04388154
100	0x3ce40c76	0.027837973
101	0x3cd35ab0	0.02580008
102	0x3d1b2160	0.037873626
103	0x3d4af367	0.049548533
104	0x3d8941c8	0.06702
105	0xbc9da7f8	-0.019245133
106	0xbd6a2cd7	-0.05717167
107	0x3c427cb3	0.011870551
108	0xbdb17027	-0.086639695
109	0x3c1d0528	0.009583749
110	0xbc8e8d15	-0.017401258
111	0x3dab03b8	0.08350319
112	0x3c68bad6	0.014204701
113	0x3dad7212	0.08469023
114	0xbd6fad18	-0.058514684
115	0xbcc3da94	-0.023907937
116	0x3d24d79c	0.040244684
117	0x3d0a9815	0.033836443
118	0x3d46390b	0.048394244
119	0xbd59710a	-0.053086318
120	0xbd6f40b4	-0.058411315
121	0xbdb35ac4	-0.087575465
122	0xbd710357	-0.058841076
123	0x3c85cce8	0.016333058
124	0xbc83cbf0	-0.016088456
125	0xbd9ecf98	-0.07754439
126	0xbd9bd90d	-0.076097585
127	0x3da73fb7	0.081664495
128	0xbd3b43c1	-0.045718912
129	0xbda4d7c3	-0.08048966
130	0xbd1924b4	-0.03738852
131	0x3da5f20c	0.081028074
132	0xbdb4d0c3	-0.08828881
133	0x3da7df6e	0.08196913
134	0xbdbf84cc	-0.09351501
135	0x3d02c235	0.03192349
136	0x3d17eb43	0.037089597
137	0x3c711b39	0.014715963
138	0xbbedd73d	-0.0072583244
139	0xbdd5d06a	-0.104401425
140	0x3da472f1	0.08029736
141	0x3b9a18a0	0.0047026426
142	0x3d88a64c	0.066723436
143	0xbd9178f2	-0.071031466
144	0x3c62622c	0.013817351
145	0xbd10c0a0	-0.03533995
146	0x3ab5f780	0.0013882965
147	0xbda78316	-0.081792995
148	0x3c9d9cdc	0.019239835
149	0xbc4aee05	-0.01238585
150	0x3d3c7401	0.046009067
151	0xbd63448a	-0.055485286
152	0x3b0efc00	0.0021817684
153	0xbdca7f71	-0.09887589
154	0x3c8e2338	0.017350778
155	0xbc273ef7	-0.010207883
156	0xbd41818a	-0.04724268
157	0x3d464a54	0.04841073
158	0x3da6165f	0.08109736
159	0x3c894350	0.01675573
160	0x3d13970e	0.03603273
161	0xbdaea52e	-0.08527599
162	0xbdc1a578	-0.09455389
163	0xbcfad8c0	-0.030620933
164	0x3d1e00b0	0.038574874
165	0xbc862444	-0.016374715
166	0x3dc15d28	0.09441596
167	0xbc1714b3	-0.009221244
168	0x3dafdd58	0.0858714
169	0x3af5f361	0.0018764549
170	0xbd969428	-0.07352477
171	0x3d883cde	0.066522345
172	0xbd3561fe	-0.044282906
173	0xbb6972a0	-0.00356213
174	0xbc9bff74	-0.019042708
175	0xbdba141f	-0.09085869
176	0xbc454ac0	-0.012041748
177	0x3da331fa	0.07968517
178	0xbd935dde	-0.07195638
179	0xbccf1202	-0.025277141
180	0xbd8ebb4c	-0.06969318
181	0xbc878542	-0.016543034
182	0xbd9f4087	-0.077759795
183	0x3d871318	0.06595439
184	0x3d9a63e6	0.07538585
185	0x3d1a2295	0.037630636
186	0xbda99206	-0.08279805
187	0xbdd83e76	-0.105587885
188	0xbd97cb21	-0.07411791
189	0xbd72b0bc	-0.05925058
190	0xbda2625f	-0.07928919
191	0x3d8bbd9c	0.068232745
192	0xbd880740	-0.06642008
193	0xbd9f292b	-0.07771524
194	0xbd315c4f	-0.043300923
195	0x3cd0e0a0	0.025497735
196	0xbd7c265e	-0.061560027
197	0xbc90ffc4	-0.017700084
198	0x3d2a1d9c	0.041532144
199	0xbc17f367	-0.00927434
200	0xbccdb5c8	-0.025111094
201	0x3cb8b4e3	0.022547191
202	0xbd9a61db	-0.07538196
203	0xbcc24b71	-0.023717614
204	0xbbfaf1e0	-0.0076582283
205	0x3d8a8894	0.067643315
206	0xbda8c200	-0.082401276
207	0xbd45de3a	-0.048307635
208	0x3dabaa2b	0.08382066
209	0x3db65a18	0.08903903
210	0xbd707f09	-0.0587149
211	0x3da6a690	0.08137238
212	0x3d397c60	0.04528463
213	0x3c849f96	0.016189378
214	0x3cb6b43a	0.022302736
215	0xbc58a868	-0.013223745
216	0x3cd372e0	0.025811613
217	0x3da8cba9	0.0824197
218	0xbd16c714	-0.03681095
219	0xbd80d0f1	-0.062898524
220	0x3bef2240	0.007297784
221	0x3d44cdf7	0.048047986
222	0x3dc209fe	0.09474562
223	0xbd326314	-0.04355152
224	0x3d184b69	0.03718129
225	0x3d227381	0.039660934
226	0xbd7e718e	-0.062120013
227	0x3dc648aa	0.09681828
228	0xbc865137	-0.016396148
229	0x3db60804	0.088882476
230	0x3b2629e0	0.002535455
231	0xbd0f628c	-0.03500609
232	0xbcf122bd	-0.02943551
233	0xbdb4c116	-0.08825891
234	0x3d34a388	0.044101268
235	0x3d10effc	0.035385117
236	0xbdd999e8	-0.106250584
237	0xbda9f0ca	-0.0829788
238	0xbd178cb1	-0.03699941
239	0x3d22609c	0.039642915
240	0xbda1c3ec	-0.07898697
241	0x3db932f6	0.09042923
242	0x3cb0282c	0.02150353
243	0x3da7b82e	0.08189426
244	0xbd98b50a	-0.074564055
245	0x3b1fcf66	0.0024385094
246	0xbc994e20	-0.01871401
247	0xbc6efe58	-0.014587007
248	0x3d80905a	0.06277533
249	0xbd99037f	-0.0747137
250	0xbc98fa32	-0.01867399
251	0x3da29b34	0.07939759
252	0xbb59ba80	-0.0033222735
253	0xbd816518	-0.0631811
254	0x3cbcb441	0.02303517
255	0x3d3da9e5	0.046304602

arith.constant6 f4 [32, 3, 3, 32]
0	0xbd1b4da5	-0.037915844
1	0xbdbbb3c1	-0.09165145
2	0xbae7c219	-0.0017681747
3	0xbd9eff39	-0.077635236
4	0x3c230dd7	0.00995203
5	0x3b96d1ad	0.004602632
6	0xbd02eabf	-0.031962153
7	0x3bde8cbf	0.0067916806
8	0xbde7bd27	-0.11315375
9	0xbd312cb5	-0.043255527
10	0xbd83d4ba	-0.06437059
11	0xbd337a2d	-0.043817688
12	0x3c408192	0.011749642
13	0xbcdc4c47	-0.02689184
14	0xbd7713e9	-0.060321722
15	0xbd410f34	-0.04713364
16	0xbd68149b	-0.056660276
17	0x3d91ee78	0.071255624
18	0x3d75e9b0	0.060037315
19	0x3cb0dc56	0.02158944
20	0x3c940169	0.018067079
21	0xbc54cb02	-0.012987854
22	0x3d93ef38	0.07223362
23	0xbbf764ae	-0.0075498438
24	0x3d53c040	0.051697016
25	0x3df4f06c	0.11959919
26	0x3d454210	0.048158705
27	0x3da2b1ff	0.07944106
28	0xbdb02a38	-0.086018026
29	0x3ab819a9	0.0014045733
30	0xbdd4f96a	-0.103991345
31	0x3c381cb0	0.011237308
32	0xbb3a2d35	-0.0028408293
33	0xbca39b03	-0.019971376
34	0x3deb593d	0.1149163
35	0xb9b4b515	-0.00034467192
36	0x3d24c748	0.040229112
37	0x3bfd9812	0.0077390755
38	0xbcc9dc7a	-0.024641264
39	0xbdb49dc1	-0.08819152
40	0xbde34afb	-0.11098286
41	0xbcdad8da	-0.026714731
42	0x3dbb9afc	0.0916042
43	0x3d68122c	0.056657955
44	0xbceed8c4	-0.029156096
45	0xbd35bed5	-0.044371445
46	0x3c992b0a	0.01869728
47	0x3d2df9f7	0.042474713
48	0xbd4c3fae	-0.049865417
49	0x3dbda91e	0.09260772
50	0x3da1c2b1	0.078984626
51	0x3d6e3b07	0.05816176
52	0x3ca5a7e0	0.02022165
53	0x3d8e6ba5	0.06954125
54	0xbd346fdf	-0.044052
55	0x3d0401e3	0.03222836
56	0xbc10dd32	-0.0088418
57	0x3d6c2b36	0.057658397
58	0xbd446a2f	-0.047952827
59	0x3c7bae6c	0.01536141
60	0x3df68fd6	0.12039153
61	0x3dbbce8e	0.091702566
62	0x3d499f79	0.04922435
63	0x3d7cadf8	0.061689347
64	0xbc656bcc	-0.014002752
65	0xbd975fd6	-0.07391326
66	0xbd19736d	-0.037463594
67	0xbcd2b390	-0.025720388
68	0x3d2c03a0	0.041995645
69	0x3d2b3a1f	0.041803475
70	0x3dba2d9e	0.09090732
71	0x3d0a7a51	0.033808056
72	0xbd8c28f3	-0.06843748
73	0x3dd87248	0.105686724
74	0x3d4cb6a0	0.049978852
75	0x3deff29d	0.11716197
76	0xbdcbde4e	-0.09954511
77	0xbd61de56	-0.055143677
78	0x3d9ad125	0.075594224
79	0x3d7a0390	0.061038554
80	0x3d35e16e	0.04440444
81	0x3d9448c0	0.072404385
82	0x3c9ca169	0.019119935
83	0x3c6b471a	0.014360214
84	0xbc192879	-0.009348028
85	0xbd7927c5	-0.060828943
86	0x3dfec6ab	0.12440237
87	0xbd195ccc	-0.037442014
88	0xbd39e53b	-0.045384627
89	0x3cbd1c45	0.023084769
90	0xbd5fac1e	-0.054607503
91	0x3d801627	0.06254225
92	0xbd4c5921	-0.049889687
93	0x3d921008	0.07131964
94	0xbd11e234	-0.035616115
95	0xbd0b9ca2	-0.034084924
96	0xbd0c1769	-0.034202013
97	0xbd62c373	-0.055362176
98	0x3de1c0c6	0.11023097
99	0x3c9a2df9	0.01882075
100	0xbda32f72	-0.07968034
101	0x3d3ae639	0.045629714
102	0x3daf2770	0.08552444
103	0xbda3c069	-0.07995684
104	0xbdd59849	-0.10429437
105	0xbc9ae35e	-0.018907245
106	0xbd7e8a0b	-0.062143367
107	0x3de2b19c	0.110690325
108	0x3d6ded0e	0.0580874
109	0xbd158410	-0.036502898
110	0x3d5b3020	0.053512692
111	0x3c0bb86b	0.008527855
112	0xbdd8a89e	-0.10579036
113	0x3d3c2cc7	0.04594114
114	0x3d85e107	0.06537061
115	0xbda656b4	-0.08122006
116	0xbc5074d5	-0.012723167
117	0xbd7cf346	-0.06175544
118	0xbcef7e55	-0.029235044
119	0x3d034a09	0.032053027
120	0xbbfa7a43	-0.0076439693
121	0x3df685ec	0.12037262
122	0xbdbe6f7b	-0.09298607
123	0xbd122a19	-0.03568468
124	0x3bd01b3d	0.0063509033
125	0x3cdb913d	0.026802653
126	0xbd3b88b0	-0.045784652
127	0x3aca5740	0.001543738
128	0x3dd359b8	0.10319847
129	0x3d3c11aa	0.045915283
130	0x3c8c707b	0.017143479
131	0xbdc73b78	-0.0972814
132	0xbd559553	-0.05214436
133	0x3c8e143d	0.017343635
134	0x3d80c547	0.06287628
135	0xbda8e35d	-0.08246491
136	0xbc91c3cd	-0.01779356
137	0x3da091cf	0.07840311
138	0xbda4bb80	-0.08043575
139	0x3d5eb9da	0.05437646
140	0x3d2e2752	0.042517968
141	0x3d4dd21e	0.05024921
142	0x3d6b5995	0.05745848
143	0xbd8b5799	-0.06803817
144	0x3cfa3230	0.03054151
145	0xbdbbfa44	-0.09178594
146	0x3dd8979c	0.10575792
147	0x384b0a7c	4.8408736e-05
148	0xbcdb321d	-0.026757294
149	0x3dc3faec	0.09569344
150	0xbc339c0c	-0.010962497
151	0x3dd49fd1	0.10382045
152	0x3c0fdef2	0.008781182
153	0xbd132d04	-0.035931602
154	0x3d6209d4	0.055185154
155	0xbcdb2d0e	-0.026754882
156	0x3ce6b9ce	0.02816477
157	0x3dbd9fe6	0.09259014
158	0xbdc78b5d	-0.09743378
159	0xbd65ceee	-0.056105547
160	0xbd16a0aa	-0.036774315
161	0x3d989eae	0.07452141
162	0xbc9abc3f	-0.01888859
163	0xbd02f04c	-0.031967446
164	0x3dbd8d2c	0.09255442
165	0xbd1b484d	-0.03791075
166	0x3d9c2cd6	0.07625739
167	0xbc2a19ae	-0.010382099
168	0xbd18f612	-0.037344046
169	0x3c845f54	0.016158737
170	0xbc6f3570	-0.014600143
171	0xbc6e8761	-0.014558644
172	0x3c9680b2	0.018371914
173	0xbb1f6e90	-0.0024327375
174	0x3d0d5d7f	0.034512993
175	0x3c2f780e	0.010709776
176	0x3d5bcef8	0.053664178
177	0x3d35a591	0.04434735
178	0xbd1cc9f1	-0.038278524
179	0x3e0c3a60	0.13694143
180	0x3d0afdd5	0.03393348
181	0x3dc6464b	0.09681376
182	0x3d94b553	0.07261147
183	0xbd9d0bdf	-0.0766828
184	0xbdd4e39b	-0.10394975
185	0xbc2afb23	-0.010435852
186	0x3d8c4d6c	0.068507046
187	0x3d966974	0.07344332
188	0x3e00aef1	0.12566735
189	0xbca33dd4	-0.019926943
190	0xbd7e3c54	-0.062069252
191	0x3c1184e0	0.0088817775
192	0xbc6b665a	-0.014367664
193	0xbd4f57db	-0.050620895
194	0xbc856876	-0.016285162
195	0xbd50fa6d	-0.051020075
196	0x3c1270bf	0.008938014
197	0xbdf42985	-0.11921982
198	0xbd6c1852	-0.05764038
199	0x3d8538e5	0.065049924
200	0x3ce4ca83	0.027928596
201	0x3d5cd500	0.05391407
202	0xbd210cec	-0.039318964
203	0xbc7f856f	-0.015595778
204	0xbce96b5c	-0.028493576
205	0x3de57d54	0.11205545
206	0xbe0457bb	-0.12924092
207	0x3dcf17c8	0.10111958
208	0xbd08c8d3	-0.033394646
209	0xbc506438	-0.0127192065
210	0xbd91fd6d	-0.07128415
211	0xbc6ce267	-0.014458275
212	0x3d195eef	0.03744405
213	0xbcd70773	-0.02624867
214	0x3cd52342	0.026017789
215	0x3c0c1ad4	0.008551318
216	0x3df3948d	0.11893568
217	0x3df2a6e0	0.11848235
218	0x3d080ad4	0.03321345
219	0xbc1183b3	-0.008881497
220	0xbb554f83	-0.0032548613
221	0x3df0746c	0.11740956
222	0xbcee58db	-0.029095104
223	0x3d95c966	0.07313804
224	0x3ce5cd95	0.02805213
225	0xbdb5c61d	-0.08875678
226	0xbc9650ad	-0.018349016
227	0xbd9cb412	-0.07651533
228	0xbd3118c2	-0.0432365
229	0xbdb18b2f	-0.08669125
230	0x3d55b5c2	0.05217529
231	0x3dd8326f	0.105564944
232	0x3d1545e8	0.03644362
233	0xbcbf9f56	-0.023391407
234	0xbd91c61b	-0.07117864
235	0x3d4da331	0.05020446
236	0xbcf21b5c	-0.029554062
237	0xbd6a8517	-0.05725583
238	0xbde53402	-0.1119156
239	0xbd96eaa5	-0.07368974
240	0xbd7c2c22	-0.061565526
241	0x3dabc61d	0.083873965
242	0xbccd77cd	-0.02508154
243	0x3d3e4ea4	0.046461716
244	0xbd98fe3b	-0.074703656
245	0x3d607d62	0.054807074
246	0x3c950a1a	0.018193293
247	0xbd5af3fe	-0.053455345
248	0xbd587f19	-0.052855585
249	0x3dd64e80	0.104641914
250	0x3d2620e4	0.04055871
251	0xbd69e293	-0.057100844
252	0x3d2e2599	0.042516325
253	0x3d65502f	0.055984672
254	0x3a7fc4f2	0.0009756825
255	0xbd6a0a10	-0.057138503

arith.constant7 f4 [3, 128]
0	0xbd5a93f8	-0.05336377
1	0xbda4eafd	-0.08052633
2	0xbdf4a672	-0.119458094
3	0xbe8b61b1	-0.2722297
4	0xbe421197	-0.18952022
5	0x3b3f8757	0.0029224956
6	0xbdf3b8b3	-0.11900463
7	0x3e4aaadb	0.19791739
8	0xbdde0a43	-0.10841801
9	0xbe59b475	-0.21260245
10	0x3bbceb80	0.0057653785
11	0xbbaca302	-0.0052684555
12	0xbe2cf524	-0.16890389
13	0xbe204f54	-0.15655261
14	0x3e1a81bb	0.15088551
15	0x3cef9687	0.029246582
16	0xbdf185e4	-0.11793116
17	0xbe632454	-0.22181827
18	0x3b5d87c3	0.0033802844
19	0xbd79120a	-0.06080822
20	0x3c91293b	0.017719856
21	0x3e033455	0.12812932
22	0x3e086b83	0.13322262
23	0x3e5588bf	0.20852946
24	0xbd42524f	-0.047441777
25	0xbd7bc6e8	-0.06146899
26	0xbd02e9b0	-0.031961143
27	0xbdf569da	-0.1198308
28	0x3cc4432b	0.02395781
29	0xbdcaeca7	-0.09908419
30	0xbc971d55	-0.018446604
31	0xb9a48472	-0.00031379197
32	0x3c841e16	0.016127627
33	0xbcc11bb4	-0.02357278
34	0xbdca9cd6	-0.09893195
35	0xbe2499bd	-0.16074272
36	0xbe0a0a70	-0.13480544
37	0xbce9de24	-0.028548308
38	0xbd2a9f7e	-0.04165601
39	0x3d9d8032	0.07690467
40	0x3d7f529d	0.062334646
41	0x3e0260d1	0.12732245
42	0x3dab08e1	0.08351303
43	0xbdd08bb6	-0.10182898
44	0x3db3fc26	0.08788328
45	0x3e6e327c	0.23261446
46	0x3e03e9af	0.12882112
47	0x3dc04ff5	0.093902506
48	0xbe198be9	-0.14994778
49	0xbe1d0146	-0.15332517
50	0xbdc66b7a	-0.09688468
51	0xbc9633c8	-0.018335238
52	0x3ae6f665	0.0017621039
53	0x3e575750	0.21029401
54	0xbe67ef72	-0.22649935
55	0xbdc77a4b	-0.097401224
56	0x3be87ffb	0.0070953346
57	0x3e0e10c5	0.13873585
58	0x3db615f3	0.08890905
59	0xbe68e943	-0.22745232
60	0x3d0fb01c	0.03508006
61	0x3ca6581a	0.020305682
62	0xbaed8e23	-0.0018124025
63	0xbde8dc6b	-0.113701664
64	0xbe0b0f49	-0.1358005
65	0xbe852e95	-0.26012102
66	0x3db65773	0.08903398
67	0xbd01f223	-0.03172506
68	0xbda1ad7d	-0.078944184
69	0x3e0961e4	0.13416249
70	0x3db8ae3d	0.09017608
71	0x3dd792fc	0.10526082
72	0xbd578011	-0.052612368
73	0x3e13c77b	0.14431565
74	0x3e80cdaf	0.25156924
75	0xbd4aaa8f	-0.049479064
76	0x3db39005	0.08767704
77	0x3e52b4a3	0.2057672
78	0x3e61a96e	0.22037289
79	0x3e20e637	0.1571282
80	0x3e326268	0.17420352
81	0x3dbe79a0	0.09300542
82	0xbe101632	-0.14070967
83	0xbe447979	-0.19186963
84	0x3e37d4e8	0.17952311
85	0xbe45f955	-0.19333394
86	0x3c508058	0.012725912
87	0x3dffabfd	0.12483976
88	0x3e1ff161	0.15619422
89	0x3e1ffb79	0.15623273
90	0xbd213780	-0.03935957
91	0x3e3de07e	0.18542668
92	0x3e3aaf1c	0.18230861
93	0x3d6a060c	0.057134673
94	0x3d6a8d46	0.057263635
95	0x3d73d19e	0.05952608
96	0xbde7ff76	-0.11328022
97	0xbe0fba1d	-0.1403584
98	0xbdedc90e	-0.11610614
99	0x3d3dda00	0.04635048
100	0x3e7a7632	0.2445915
101	0x3e0845ba	0.13307849
102	0x3e4da67a	0.20083037
103	0xbe3e5bd9	-0.18589725
104	0xbe1988a5	-0.14993532
105	0x3e34713d	0.17621322
106	0x3e30e4cc	0.17274779
107	0x3d89519a	0.067050174
108	0x3d33bbb9	0.0438802
109	0x3e3871d1	0.18012168
110	0xbd950e68	-0.072781384
111	0x3e39f48e	0.18159696
112	0xbe4be15d	-0.19910188
113	0xbe3c8933	-0.18411712
114	0x3dfb916b	0.12283596
115	0xbe07b848	-0.13253891
116	0x3dfc47fe	0.12318419
117	0xbe56e1d0	-0.20984578
118	0x3d74ca8c	0.059763476
119	0x3dcaf665	0.09910277
120	0xbe3db2a9	-0.18525185
121	0xbe315ffd	-0.17321773
122	0xbe359fca	-0.17736736
123	0xbd45877a	-0.048224904
124	0x3dcf3326	0.10117178
125	0x3da175c4	0.0788379
126	0xbd79bfca	-0.06097392
127	0x3c95b58c	0.018275045
128	0xbdfaae49	-0.122402735
129	0xbd79b88a	-0.060967006
130	0xbe3e3cdf	-0.18577908
131	0x3de3a84d	0.11116085
132	0x3d61dfaa	0.055144943
133	0x3e2ffe41	0.17186834
134	0xbd8bfa56	-0.06834857
135	0xbce91828	-0.028453901
136	0x3e2b00f5	0.16699584
137	0x3d4c594e	0.049889855
138	0xbc20bce0	-0.009810656
139	0xbda99b9c	-0.08281633
140	0xbddf0d05	-0.10891155
141	0x3ccab657	0.02474515
142	0xbe061b71	-0.13096406
143	0xbe358260	-0.17725515
144	0x3e09561e	0.13411757
145	0xbe4d0222	-0.20020345
146	0x3e0954e0	0.13411283
147	0x3e36b216	0.17841372
148	0xbddb2a61	-0.107014425
149	0xbde24491	-0.11048234
150	0x3c44820f	0.011993899
151	0xbdd7eb95	-0.105429806
152	0x3e66bed9	0.2253374
153	0x3d4a3144	0.04936339
154	0xbe1e8b77	-0.15482889
155	0xbe8e3d05	-0.2778093
156	0xbe5b02b4	-0.2138775
157	0xbe3118c6	-0.17294607
158	0xbdfd45c2	-0.12366821
159	0xbc77900c	-0.015110027
160	0x3e1d3017	0.15350376
161	0x3de595e7	0.11210232
162	0xbd3359e0	-0.043786883
163	0x3dfab8be	0.12242268
164	0xbdaa92c5	-0.08328775
165	0x3cbe2dfc	0.023215286
166	0xbe797642	-0.24361518
167	0x3e012043	0.12609963
168	0xbd8f1cac	-0.069878906
169	0xbcf6d9fc	-0.03013324
170	0x3d8db108	0.06918532
171	0x3da2467d	0.07923601
172	0xbb31fa80	-0.0027157366
173	0xbde9b5e5	-0.11411647
174	0x3e4812e7	0.1953846
175	0xbe0347e5	-0.12820394
176	0xbdcf03ad	-0.10108123
177	0x3d764350	0.060122788
178	0xbdc9d27c	-0.098546
179	0x3cb6ccbf	0.022314427
180	0x3c4d4f91	0.012531177
181	0xbdadf892	-0.08494677
182	0x3e31224f	0.17298244
183	0xbe18bd53	-0.14915971
184	0x3b2442f1	0.0025064314
185	0xbe06260f	-0.13100456
186	0xbdc024cb	-0.09382018
187	0xbe117d54	-0.14207965
188	0xbcc3ac10	-0.023885757
189	0x3dbf896c	0.09352383
190	0xbd877ed8	-0.066159904
191	0xbe2dc007	-0.16967784
192	0x3df635cb	0.12021979
193	0xbde88ab6	-0.11354582
194	0x3d3e162b	0.04640786
195	0x3da17484	0.07883552
196	0x3d977256	0.07394855
197	0xbdbae0fb	-0.09124943
198	0x3e799e88	0.24376881
199	0xbe6dace6	-0.23210487
200	0x3e3c54b9	0.18391694
201	0xbe5c6050	-0.21521115
202	0xbc4afab2	-0.012388872
203	0x3d53796e	0.051629476
204	0x3d82a518	0.063791454
205	0xbe38b165	-0.1803642
206	0x3d26cda7	0.04072347
207	0xbe6d5f08	-0.23180783
208	0x3d8b82e8	0.06812078
209	0xbc36ed58	-0.011164986
210	0xbcbe3190	-0.023216993
211	0xbda4b36e	-0.08042036
212	0x3e4c6280	0.1995945
213	0xbd9b5b5c	-0.07585785
214	0xbd893797	-0.06700056
215	0xbe5785be	-0.21047112
216	0xbd1fee0c	-0.03904538
217	0x3d2761d2	0.040864773
218	0xbc8b44d5	-0.017000595
219	0x3e32e237	0.17469107
220	0x3dcae868	0.09907609
221	0xbda4be85	-0.08044151
222	0xbdadb42a	-0.08481629
223	0xbd87d448	-0.06632286
224	0x3e05e4bf	0.13075541
225	0xbb8628dd	-0.0040942268
226	0xbdad4c34	-0.084618
227	0x3e2d5da6	0.16930255
228	0xbd3bd08f	-0.045853194
229	0xbd981fda	-0.0742795
230	0xbd1defe3	-0.038558852
231	0x3d8d31ae	0.06894241
232	0x3dedd16f	0.11612212
233	0xbde1b984	-0.110217124
234	0xbd151aaf	-0.0364024
235	0xbd1a363a	-0.03764937
236	0x3d09cb75	0.033641297
237	0xbce2ef18	-0.0277019
238	0xbbc8cc0d	-0.0061278404
239	0x3e1cf062	0.15326074
240	0xbe283873	-0.16427784
241	0x3e317c9a	0.17332688
242	0xbe159c8e	-0.14610502
243	0xbcb5696e	-0.022145
244	0xbddca8ee	-0.10774408
245	0x3cf074fa	0.029352654
246	0xbdac2f90	-0.08407509
247	0x3e2e95fb	0.170494
248	0x3df17899	0.1179058
249	0xbd80177e	-0.06254481
250	0xbd8fcb4c	-0.07021198
251	0x3d859fb8	0.065246046
252	0xbe53c05c	-0.20678848
253	0x3e6351dc	0.22199196
254	0x3e664536	0.2248734
255	0x3d2ef2e0	0.042712092

arith.constant8 f4 [128, 128]
0	0xbe158d7a	-0.1460475
1	0xbd9986ad	-0.074963905
2	0xbd6c8652	-0.057745285
3	0xbc77e590	-0.015130416
4	0x3e1240f5	0.14282592
5	0xbd0d50f0	-0.034501016
6	0xbc438ed0	-0.011935905
7	0x3ab80880	0.0014040619
8	0xbd95d6cd	-0.073163606
9	0xbe124b8d	-0.14286633
10	0xbda1121e	-0.07864784
11	0xbe192e69	-0.1495911
12	0x3db939f4	0.09044257
13	0x3d051170	0.032487333
14	0x3d483238	0.048876017
15	0xbd6d5d7e	-0.05795049
16	0xbdb2d796	-0.08732526
17	0xbdf6efd7	-0.120574646
18	0xbe1ba81e	-0.1520085
19	0xbd741ffa	-0.059600808
20	0xbdf0d02a	-0.11758454
21	0xbd8120ce	-0.06305085
22	0xbe05eb28	-0.13077986
23	0xbd8ecb40	-0.069723606
24	0x3d845630	0.064617515
25	0xbd1b6832	-0.037941165
26	0x3c5fd3e0	0.013661355
27	0xbd2b424e	-0.04181128
28	0x3e1583c5	0.14601047
29	0xbd9e8dd8	-0.07741898
30	0xbdbff290	-0.09372437
31	0x3bd0c660	0.0063713044
32	0xbd6ae2d8	-0.05734524
33	0xbd7372ae	-0.05943554
34	0xbd0cbfb0	-0.034362495
35	0xbca5a098	-0.020218179
36	0x3e07c3bd	0.13258262
37	0x3cb06468	0.021532252
38	0x3dc56566	0.09638481
39	0x3e03a191	0.12854601
40	0x3a4da200	0.0007844269
41	0xbe0bbcde	-0.13646266
42	0x3d0be4bc	0.034153685
43	0xbcefc738	-0.0292698
44	0xbdffa8a6	-0.12483339
45	0xbe16381c	-0.14669842
46	0xbd0453c2	-0.03230644
47	0xbc949088	-0.018135324
48	0x3d4733a0	0.048633218
49	0x3b3cfac0	0.0028835982
50	0x3dd0a15e	0.10187028
51	0x3dfff53a	0.12497945
52	0x3dbdc480	0.09265995
53	0x3c02c0e0	0.007980555
54	0x3deb564e	0.11491071
55	0xbd0fbd1e	-0.035092466
56	0xbdade556	-0.08491008
57	0xbd1e9bf8	-0.038722962
58	0x3dc06f12	0.09396185
59	0xbdef0f9a	-0.11672898
60	0xbd304fb8	-0.043044776
61	0xbcaed8f8	-0.021343693
62	0xbe0632d2	-0.13105324
63	0xbd9d1ef5	-0.0767192
64	0xbd700fca	-0.058608808
65	0xbc1da950	-0.009622887
66	0xbd397e8a	-0.045286693
67	0xbce2a6b0	-0.027667373
68	0x3dda6776	0.10664265
69	0x3d0c0c30	0.03419131
70	0xbd1a40b0	-0.037659347
71	0x3d17afb8	0.037032813
72	0x3d31c74c	0.043402955
73	0xbc6e5850	-0.0145474225
74	0x3d36a73c	0.04459308
75	0xbd9cb544	-0.07651761
76	0x3e107b0f	0.14109443
77	0xbd1179b2	-0.03551645
78	0x3d9dd986	0.07707505
79	0x3cfbd448	0.030740872
80	0xbb460080	-0.00302127
81	0xbe18a5f5	-0.14907058
82	0xbe01ba85	-0.12668808
83	0x3e14cdb5	0.14531596
84	0xbb540940	-0.0032354146
85	0xbc2aad10	-0.010417238
86	0xbd321da2	-0.04348529
87	0xbd38fe52	-0.045164414
88	0xbdb338b5	-0.087510504
89	0xbdc91adc	-0.09819576
90	0x3dcfb79e	0.10142444
91	0xbcb942a0	-0.022614777
92	0x3e036c67	0.12834321
93	0xbd1d75e0	-0.038442492
94	0x3d0d0c28	0.03443542
95	0x3c9d65a8	0.019213513
96	0xbd875f62	-0.0660999
97	0x3dc6e51a	0.097116664
98	0x3e06fe57	0.1318296
99	0x3dc780a6	0.097413346
100	0xbbfbe0a0	-0.0076866895
101	0xbdebfe06	-0.115230605
102	0x3da6afc2	0.08138992
103	0xbe02065e	-0.12697741
104	0xbb6a9440	-0.003579393
105	0xbd9a2238	-0.07526058
106	0xbdd16b64	-0.10225561
107	0xbe116f60	-0.14202642
108	0x3dd33ede	0.10314725
109	0x3d8dd688	0.06925684
110	0x3e15608f	0.14587615
111	0xbdf80cc9	-0.121118136
112	0xbdabf36b	-0.08396038
113	0x3d8fecf0	0.07027614
114	0x3dc35678	0.09537977
115	0x3d2a0388	0.041507274
116	0xbceb65d0	-0.028735071
117	0xbd66f67a	-0.056387402
118	0x3e1a43fd	0.15064998
119	0x3d4580b8	0.04821846
120	0xbd82bd1a	-0.063837245
121	0xbca33f38	-0.019927606
122	0xbc99dbf0	-0.018781632
123	0xbd78c40e	-0.060733847
124	0x3d8526da	0.06501551
125	0xbdbfc342	-0.09363414
126	0xbce8dbf0	-0.028425187
127	0xbdc158f4	-0.094407946
128	0xbd9bc9e3	-0.07606866
129	0xbd5c07cd	-0.053718377
130	0xbd4fa687	-0.050695922
131	0x3c13b39d	0.009014991
132	0xbda75739	-0.08170933
133	0x3d91a583	0.07111647
134	0xbcb50b4f	-0.022100119
135	0xbcb1cf19	-0.021705197
136	0x3d1008c4	0.03516461
137	0xbdc0cc75	-0.09413997
138	0x3db44cac	0.088036865
139	0x3dda0dcd	0.106471635
140	0x3dabfb11	0.083974965
141	0x3bb99bd2	0.005664327
142	0x3e108f82	0.14117244
143	0xbde8f436	-0.113747045
144	0xbcb570b6	-0.022148471
145	0x3c74b5e9	0.014935949
146	0xbd3bcdaa	-0.045850433
147	0xbd9f7135	-0.077852644
148	0xbdb3ae21	-0.08773447
149	0xbdda683e	-0.10664414
150	0x3dd2370a	0.10264404
151	0x3e18dc16	0.14927706
152	0xbd87f579	-0.06638617
153	0xbe03cafa	-0.12870398
154	0xbe10b616	-0.1413196
155	0xbd8688ef	-0.06569087
156	0xbcf08b69	-0.029363351
157	0xbe1c3d14	-0.15257674
158	0xbdae47ae	-0.085097656
159	0xbdec7235	-0.11545221
160	0x3bc400a0	0.00598152
161	0xbde9b147	-0.11410766
162	0x3cf0f2db	0.029412678
163	0x3c447445	0.011990611
164	0x3da9a5e4	0.08283594
165	0xbe0ac45d	-0.13551469
166	0x3e11e039	0.1424569
167	0xbd4a6452	-0.04941208
168	0xbd936efb	-0.07198902
169	0x3e0f3f7c	0.13989061
170	0xbdad1d23	-0.08452823
171	0x3c1cd5c0	0.009572446
172	0x3c858241	0.016297461
173	0xbccd8a9a	-0.025090504
174	0x3e0db897	0.13839947
175	0x3d9d0ccf	0.07668459
176	0xbbc9c3ba	-0.0061573656
177	0xbc7d8c63	-0.015475365
178	0x3dc24f96	0.09487836
179	0x3d2bc504	0.041935936
180	0x3db9ae66	0.09066467
181	0xbcb273de	-0.021783765
182	0xbde7add7	-0.11312454
183	0xbe404bdb	-0.18778937
184	0xbdd818c4	-0.10551599
185	0x3ce4919d	0.027901465
186	0x3ccf00e0	0.025268972
187	0x3d0c7e61	0.03430021
188	0xbd06aa30	-0.032877147
189	0x3cd1df30	0.02561912
190	0x3d8a4ae8	0.067525685
191	0xbdad5b51	-0.08464683
192	0xbd89a7c7	-0.06721454
193	0x3dab5beb	0.08367141
194	0x3d6c3297	0.057665434
195	0x3e1cef68	0.15325701
196	0x3cd1bc92	0.025602613
197	0x3e26d69b	0.16292803
198	0xbd543690	-0.051809847
199	0xbdc9ff05	-0.09863094
200	0xbd1d5bfe	-0.03841781
201	0x3d7925e9	0.06082717
202	0xbd929c44	-0.071587116
203	0xbc73c493	-0.01487841
204	0x3d703df0	0.05865282
205	0x3da1e99c	0.079058856
206	0x3d60d848	0.054893762
207	0x3d96fe55	0.07372729
208	0x3d1db914	0.038506582
209	0x3d72ab53	0.05924542
210	0xbdc46adc	-0.09590694
211	0x3d6c70d0	0.057724774
212	0x3e057647	0.130334
213	0xbe122290	-0.14270997
214	0x3daf686c	0.08564839
215	0x3c8763fd	0.01652717
216	0x3d88287d	0.066483475
217	0xbdaa52e4	-0.083165914
218	0x3da150d6	0.07876746
219	0xbd64d436	-0.055866443
220	0x3cbf4d52	0.023352299
221	0x3d6fcd3c	0.058545336
222	0xbccadba2	-0.024762932
223	0x3d804bee	0.062644824
224	0xbdef8c8c	-0.11696729
225	0xbd8d0108	-0.06884962
226	0x3e21ba7f	0.15793799
227	0xbe0c0a2b	-0.13675754
228	0xbc1cdc9e	-0.009574084
229	0xbe11c7ff	-0.14236449
230	0x3e4827d1	0.19546439
231	0xbcfa8096	-0.030578893
232	0x3dfd5586	0.12369828
233	0x3d50df5c	0.050994262
234	0x3d9e4538	0.07728046
235	0x3a138d75	0.0005628684
236	0xbdc7235d	-0.09723542
237	0xbde9ff39	-0.11425633
238	0x3d8717ed	0.0659636
239	0xbd9018ad	-0.070359565
240	0x3cfd0de0	0.030890405
241	0xbe0eb920	-0.13937807
242	0x3e140b2b	0.14457385
243	0xbe176a2a	-0.14786592
244	0x3d0aa184	0.03384544
245	0x3e0e6335	0.13905032
246	0xbd8ff67b	-0.07029434
247	0xbd6e330d	-0.058154155
248	0xbdc05a62	-0.09392239
249	0x3e0fabe9	0.14030422
250	0xbcc89730	-0.024486154
251	0x3d03ded6	0.032194935
252	0x3c73989f	0.014867931
253	0xbd9f98ef	-0.07792842
254	0x3c78ed2b	0.015193264
255	0xbe0066cf	-0.12539218

sequential_1/conv2d_1/Relu;sequential_1/conv2d_1/BiasAdd;sequential_1/conv2d_1/convolution; f4 [32, 3, 3, 3]
0	0x39aed3b9	0.00033345612
1	0x38959103	7.131884e-05
2	0x392209c0	0.00015453156
3	0x3a184403	0.00058084744
4	0x38c41811	9.350491e-05
5	0xb84bf6cc	-4.862882e-05
6	0xb8f963d5	-0.000118918404
7	0xb9c32da6	-0.0003722731
8	0xb9ddf1b9	-0.00042332502
9	0x37e50a60	2.7303759e-05
10	0x39b13eca	0.00033806852
11	0xb75194c3	-1.2492007e-05
12	0xb99b692d	-0.00029642266
13	0x393375e1	0.00017114684
14	0x39b9daa8	0.0003544886
15	0xb8e51df9	-0.00010925154
16	0xb8bc054c	-8.965525e-05
17	0xb95a2e1d	-0.00020807279
18	0x39477f08	0.00019025442
19	0xb97a6081	-0.00023877808
20	0x39a44e03	0.0003133864
21	0xb91dfec9	-0.00015067602
22	0xba03ffff	-0.00050354
23	0xb8859238	-6.3691696e-05
24	0xb9c54f8b	-0.00037634032
25	0x38d31250	0.00010064675
26	0x3a03591f	0.00050105335
27	0xb9a2a955	-0.0003102521
28	0xb9de36ae	-0.0004238388
29	0x38673a6d	5.5129105e-05
30	0x3a22ed5d	0.00062151795
31	0xb9b5853b	-0.00034622275
32	0x37a11152	1.9200761e-05
33	0x3a0925b5	0.0005231754
34	0xb9cd45b3	-0.00039152577
35	0xb8358304	-4.327578e-05
36	0x39c408e1	0.00037390649
37	0xb9cf4afd	-0.00039537987
38	0x39a764d0	0.00031927833
39	0x38d957b5	0.00010363703
40	0xb9866dda	-0.00025640317
41	0xb75f37aa	-1.3304796e-05
42	0x39c30536	0.0003719718
43	0x38f907f5	0.00011874727
44	0xb98b26ec	-0.00026541145
45	0x3959a3ef	0.00020755803
46	0xba07c79f	-0.0005179587
47	0xb910772d	-0.00013777307
48	0xb9b2e34b	-0.00034120152
49	0xb94ce60b	-0.00019540654
50	0xb9cc4d98	-0.00038967724
51	0x38dfbfa2	0.00010669163
52	0x3959d21a	0.00020773002
53	0x39d346a8	0.000402977
54	0x38437f36	4.6610097e-05
55	0x39958e3f	0.00028525476
56	0xb8820a53	-6.200806e-05
57	0x3a1495b6	0.00056680606
58	0x392f66cd	0.00016727597
59	0x3a0f042b	0.0005455638
60	0xb9e6cb0d	-0.00044020303
61	0x3a13168b	0.0005610964
62	0x3989e979	0.00026304627
63	0x348a1e03	2.572634e-07
64	0x38fd314f	0.000120731645
65	0x37e49cf2	2.7252801e-05
66	0xb4e3ba53	-4.2417614e-07
67	0x38c14e02	9.217487e-05
68	0xb999d53f	-0.00029341315
69	0xb8bf4e48	-9.122171e-05
70	0xb9629e69	-0.00021612052
71	0x39a7bc6e	0.00031993113
72	0xb9ab3592	-0.00032655575
73	0xb89d41b8	-7.4985845e-05
74	0x3920ebde	0.00015346656
75	0x3961d88a	0.00021538339
76	0xb9bc1892	-0.0003587646
77	0xb9ca9f78	-0.00038647256
78	0xb9426218	-0.00018537825
79	0xb9f72a84	-0.00047143188
80	0xb8f4a6e7	-0.00011665915
81	0xb9c7463a	-0.0003800856
82	0xba26e604	-0.00063666725
83	0xb9881c12	-0.00025960855
84	0xb9a9a5bd	-0.00032357677
85	0x39ccf074	0.00039089064
86	0x39ade090	0.00033164443
87	0x39da9dcc	0.00041697768
88	0x396298fc	0.0002161003
89	0xb81963d5	-3.657102e-05
90	0x3a1313ea	0.00056105724
91	0xb974def8	-0.00023352716
92	0xb9ebe8eb	-0.0004499623
93	0xb92a6698	-0.00016250683
94	0xb9f0f2fd	-0.00045957408
95	0x39f5e6c3	0.00046901972
96	0x3a0b9278	0.0005324255
97	0xba0f27b2	-0.0005460932
98	0x3a09bd8b	0.00052543794
99	0x38c1f858	9.249215e-05
100	0x39d5e655	0.00040798137
101	0xb7f863bd	-2.9610348e-05
102	0xb97a07e6	-0.000238448
103	0xb9aed932	-0.0003334969
104	0xb9a6d49f	-0.00031820402
105	0xb8ec3b67	-0.000112644215
106	0xb9c82bfe	-0.0003817975
107	0x3a15d170	0.00057151075
108	0xb96b6c1b	-0.00022451619
109	0x393e5398	0.00018150953
110	0x39188f96	0.0001454934
111	0xb8ab90f6	-8.1809165e-05
112	0x389303b8	7.010199e-05
113	0x3a274bff	0.0006381869
114	0x3a026f35	0.00049756776
115	0xb8dff26f	-0.000106786254
116	0x3a32bbc9	0.00068181433
117	0x38d286d1	0.00010038692
118	0x380b978a	3.3281314e-05
119	0x36fa11a9	7.4526365e-06
120	0xb9878e84	-0.0002585539
121	0xb9bba026	-0.0003578674
122	0x393d3dc1	0.0001804745
123	0xb7b9f47d	-2.2167567e-05
124	0x396deb09	0.00022689639
125	0xb9177785	-0.00014445007
126	0x39048778	0.00012638967
127	0xb93355f9	-0.00017102798
128	0x39fe183b	0.00048464708
129	0xb9be443a	-0.00036290457
130	0xba032d32	-0.0005003988
131	0x394ea9e8	0.00019708986
132	0x396163cb	0.00021494848
133	0x39dc336f	0.0004199999
134	0x3a2a5312	0.0006497364
135	0xb9bdeec2	-0.00036226778
136	0x3a14273a	0.0005651597
137	0x39d7ce82	0.00041161856
138	0x38c8555f	9.552645e-05
139	0x38ba40b2	8.8812216e-05
140	0x39a14c79	0.0003076529
141	0x3961b0a7	0.0002152348
142	0xb7d1d059	-2.5011761e-05
143	0x3a1f5c0e	0.0006079086
144	0x3824262e	3.9136205e-05
145	0x38fc8f0e	0.000120429424
146	0x394d83aa	0.00019599372
147	0xb9956cc0	-0.0002850052
148	0x3a0b4515	0.0005312723
149	0x391cf804	0.00014969712
150	0xba0d2a5b	-0.00053850346
151	0x3a0221dc	0.0004964152
152	0xb97d4a45	-0.00024155628
153	0xb908f2a9	-0.00013060369
154	0x3a043606	0.00050434505
155	0x3a027825	0.00049770094
156	0xb9c3ea09	-0.00037367668
157	0xb90da9de	-0.00013510088
158	0xb98ddf76	-0.00027060107
159	0xb95b9d32	-0.00020944027
160	0x3a100b94	0.00054948893
161	0xb9951dfc	-0.00028441835
162	0x39f7dfb5	0.00047278186
163	0xba016821	-0.0004936476
164	0x3a0c80ad	0.00053597504
165	0xb9b89548	-0.00035206438
166	0xb9619505	-0.00021513186
167	0xb92d3650	-0.00016518799
168	0xb9c660df	-0.00037837678
169	0x39d13835	0.00039905464
170	0xb8904565	-6.879381e-05
171	0x397a3f03	0.00023865332
172	0x39a84167	0.00032092186
173	0xb93fdb57	-0.0001829689
174	0xb93228a3	-0.00016990541
175	0x39edcd60	0.0004535718
176	0x39c1048c	0.00036815216
177	0xb895589b	-7.121378e-05
178	0x387da3bd	6.0472394e-05
179	0x381f9945	3.8051297e-05
180	0xb8f6a0b6	-0.00011760129
181	0xb9e34f41	-0.00043355863
182	0x3993c8cf	0.0002818764
183	0xb97ecd82	-0.00024299885
184	0x3a0d206d	0.0005383555
185	0x3a24d47b	0.00062877656
186	0x38f48cde	0.00011661065
187	0xb975816e	-0.00023413237
188	0x386fce5b	5.7174224e-05
189	0x398028da	0.000244445
190	0x39e1da55	0.00043078014
191	0xb6381104	-2.742804e-06
192	0x39b7cfa0	0.00035059173
193	0xb98f4714	-0.00027328043
194	0xba1cc15b	-0.000597974
195	0x38f82a79	0.00011833473
196	0xb9a6f2ff	-0.00031843034
197	0xb9992a29	-0.00029213846
198	0x391a6bbc	0.00014726719
199	0xba28776a	-0.00064264855
200	0x3925ee4e	0.00015824402
201	0x3a02da1c	0.0004991607
202	0x39445ba3	0.00018726154
203	0x38774e7d	5.8962487e-05
204	0xb99b3732	-0.00029605028
205	0x38289ff9	4.0203307e-05
206	0x39535024	0.00020152383
207	0x39d000fb	0.00039673582
208	0x39a97cda	0.00032327214
209	0xb8bffe15	-9.154916e-05
210	0xb94be128	-0.00019443466
211	0xba1be772	-0.0005947269
212	0x39643a89	0.0002176558
213	0x397c4eb4	0.00024061912
214	0x3937def9	0.00017535304
215	0x3910c4fb	0.00013806291
216	0xb99fb3fe	-0.00030460948
217	0xb9b019b7	-0.00033588495
218	0x397b4cbe	0.00023965814
219	0x39571432	0.00020511521
220	0x394e49f4	0.0001967324
221	0x39466d12	0.00018923383
222	0xb9e04353	-0.0004277477
223	0xb9b7ce1b	-0.0003505804
224	0x36ffa652	7.6189544e-06
225	0xb93b2316	-0.0001784678
226	0x39ed5f30	0.00045275083
227	0x39cda9e2	0.0003922722
228	0x39ae7784	0.00033276912
229	0x3a277592	0.0006388064
230	0x3a0b5a26	0.00053158624
231	0x38bf7272	9.128907e-05
232	0x3a03dcef	0.0005030175
233	0xb952ee9c	-0.0002011605
234	0xb9f1afd3	-0.000460981
235	0x3a229280	0.000620164
236	0x3a041060	0.00050378405
237	0xb9ef549f	-0.0004564868
238	0x3a0800cd	0.00051881076
239	0x3978d188	0.0002372918
240	0xb9c2374c	-0.00037043763
241	0xb99d8189	-0.00030041885
242	0xb89213c2	-6.965503e-05
243	0xb99d526c	-0.00030006783
244	0x39de9592	0.00042454578
245	0x39be9fe2	0.00036358746
246	0x399bb84d	0.0002970122
247	0x3921d7fe	0.0001543462
248	0x39510cc3	0.00019936547
249	0x39f60e85	0.00046931594
250	0x391e3e26	0.00015091206
251	0xb99895fc	-0.00029103446
252	0x38ec4d76	0.00011267785
253	0x39a780f5	0.00031948803
254	0x3a00adfb	0.00049087376
255	0x3a01693e	0.0004936642
